…
2024-03-11 10:24:19 INFO Dataset loaded: images=torch.Size([480000, 64, 64, 3]), labels=torch.Size([480000, 6])
2024-03-11 10:24:19 INFO [3dshapes stats]
2024-03-11 10:24:26 INFO   - images: torch.Size([480000, 3, 64, 64]) | min/max=(0.00, 1.00)
2024-03-11 10:24:26 INFO   - labels: torch.Size([480000, 3])
2024-03-11 10:24:26 INFO       labels[:, 0] min/max=(0.00, 1.00), min=0.50, std=0.33
2024-03-11 10:24:26 INFO       labels[:, 1] min/max=(0.00, 1.00), min=0.50, std=0.32
2024-03-11 10:24:26 INFO       labels[:, 2] min/max=(0.00, 1.00), min=0.50, std=0.32
2024-03-11 10:24:26 INFO CUDA is available
2024-03-11 10:24:27 INFO DuoVAE(
  (encoder_x): EncoderX(
    (encoder): Sequential(
      (0): Conv2d(3, 32, kernel_size=(4, 4), stride=(2, 2), padding=(1, 1), bias=False)
      (1): BatchNorm2d(32, eps=1e-05, momentum=0.1, affine=True, track_running_stats=True)
      (2): LeakyReLU(negative_slope=0.2, inplace=True)
      (3): Conv2d(32, 32, kernel_size=(4, 4), stride=(2, 2), padding=(1, 1), bias=False)
      (4): BatchNorm2d(32, eps=1e-05, momentum=0.1, affine=True, track_running_stats=True)
      (5): LeakyReLU(negative_slope=0.2, inplace=True)
      (6): Conv2d(32, 32, kernel_size=(4, 4), stride=(2, 2), padding=(1, 1), bias=False)
      (7): BatchNorm2d(32, eps=1e-05, momentum=0.1, affine=True, track_running_stats=True)
      (8): LeakyReLU(negative_slope=0.2, inplace=True)
      (9): View()
      (10): Linear(in_features=2048, out_features=128, bias=True)
      (11): LeakyReLU(negative_slope=0.2, inplace=True)
      (12): Linear(in_features=128, out_features=128, bias=True)
      (13): LeakyReLU(negative_slope=0.2, inplace=True)
      (14): Linear(in_features=128, out_features=12, bias=True)
    )
  )
  (decoder_x): DecoderX(
    (decoder): Sequential(
      (0): Linear(in_features=6, out_features=128, bias=True)
      (1): LeakyReLU(negative_slope=0.2, inplace=True)
      (2): Linear(in_features=128, out_features=128, bias=True)
      (3): LeakyReLU(negative_slope=0.2, inplace=True)
      (4): Linear(in_features=128, out_features=2048, bias=True)
      (5): LeakyReLU(negative_slope=0.2, inplace=True)
      (6): View()
      (7): ConvTranspose2d(32, 32, kernel_size=(4, 4), stride=(2, 2), padding=(1, 1), bias=False)
      (8): BatchNorm2d(32, eps=1e-05, momentum=0.1, affine=True, track_running_stats=True)
      (9): LeakyReLU(negative_slope=0.2, inplace=True)
      (10): ConvTranspose2d(32, 32, kernel_size=(4, 4), stride=(2, 2), padding=(1, 1), bias=False)
      (11): BatchNorm2d(32, eps=1e-05, momentum=0.1, affine=True, track_running_stats=True)
      (12): LeakyReLU(negative_slope=0.2, inplace=True)
      (13): ConvTranspose2d(32, 32, kernel_size=(4, 4), stride=(2, 2), padding=(1, 1))
      (14): LeakyReLU(negative_slope=0.2, inplace=True)
      (15): ConvTranspose2d(32, 3, kernel_size=(3, 3), stride=(1, 1), padding=(1, 1))
    )
  )
  (encoder_y): EncoderY(
    (encoder): ModuleList(
      (0): Sequential(
        (0): Linear(in_features=1, out_features=8, bias=True)
        (1): LeakyReLU(negative_slope=0.2, inplace=True)
        (2): Linear(in_features=8, out_features=2, bias=True)
      )
      (1): Sequential(
        (0): Linear(in_features=1, out_features=8, bias=True)
        (1): LeakyReLU(negative_slope=0.2, inplace=True)
        (2): Linear(in_features=8, out_features=2, bias=True)
      )
      (2): Sequential(
        (0): Linear(in_features=1, out_features=8, bias=True)
        (1): LeakyReLU(negative_slope=0.2, inplace=True)
        (2): Linear(in_features=8, out_features=2, bias=True)
      )
    )
  )
  (decoder_y): DecoderY(
    (decoder): ModuleList(
      (0): Sequential(
        (0): Linear(in_features=1, out_features=8, bias=True)
        (1): LeakyReLU(negative_slope=0.2, inplace=True)
        (2): Linear(in_features=8, out_features=1, bias=True)
        (3): Sigmoid()
      )
      (1): Sequential(
        (0): Linear(in_features=1, out_features=8, bias=True)
        (1): LeakyReLU(negative_slope=0.2, inplace=True)
        (2): Linear(in_features=8, out_features=1, bias=True)
        (3): Sigmoid()
      )
      (2): Sequential(
        (0): Linear(in_features=1, out_features=8, bias=True)
        (1): LeakyReLU(negative_slope=0.2, inplace=True)
        (2): Linear(in_features=8, out_features=1, bias=True)
        (3): Sigmoid()
      )
    )
  )
)
2024-03-11 10:24:27 INFO {'train': {'n_epoch': 1000, 'batch_size': 1024, 'lr': 0.0002, 'log_freq': 10, 'save_freq': 250}, 'common': {'z_dim': 3, 'w_dim': 3, 'x_recon_weight': 1.0, 'y_recon_weight': 1.0, 'beta_z': 0.005, 'beta_w': 0.005, 'hid_channel': 32, 'hid_dim_x': 128, 'hid_dim_y': 8, 'img_channel': 3, 'y_dim': 3}, 'duovae': {'beta_w2': 0.005}, 'pcvae': {'beta_groupwise': 0.005, 'beta_pairwise': 0.005}}
…
