…
2022-09-29 14:38:38 INFO [dSprites stats]
2022-09-29 14:38:38 INFO   - images: torch.Size([737280, 1, 64, 64]) | min/max=(0.00, 1.00)
2022-09-29 14:38:38 INFO   - labels: torch.Size([737280, 3])
2022-09-29 14:38:38 INFO       labels[:, 0] min/max=(0.00, 1.00), min=0.50, std=0.34
2022-09-29 14:38:38 INFO       labels[:, 1] min/max=(0.00, 1.00), min=0.50, std=0.30
2022-09-29 14:38:38 INFO       labels[:, 2] min/max=(0.00, 1.00), min=0.50, std=0.30
2022-09-29 14:38:38 INFO CUDA is available
2022-09-29 14:38:39 INFO DuoVAE(
  (encoder_x): DataParallel(
    (module): EncoderX(
      (encoder): Sequential(
        (0): Conv2d(1, 32, kernel_size=(4, 4), stride=(2, 2), padding=(1, 1))
        (1): BatchNorm2d(32, eps=1e-05, momentum=0.1, affine=True, track_running_stats=True)
        (2): ReLU()
        (3): Conv2d(32, 32, kernel_size=(4, 4), stride=(2, 2), padding=(1, 1))
        (4): BatchNorm2d(32, eps=1e-05, momentum=0.1, affine=True, track_running_stats=True)
        (5): ReLU()
        (6): Conv2d(32, 32, kernel_size=(4, 4), stride=(2, 2), padding=(1, 1))
        (7): BatchNorm2d(32, eps=1e-05, momentum=0.1, affine=True, track_running_stats=True)
        (8): ReLU()
        (9): View()
        (10): Linear(in_features=2048, out_features=128, bias=True)
        (11): ReLU()
        (12): Linear(in_features=128, out_features=128, bias=True)
        (13): ReLU()
        (14): Linear(in_features=128, out_features=14, bias=True)
      )
    )
  )
  (decoder_x): DataParallel(
    (module): DecoderX(
      (decoder): Sequential(
        (0): Linear(in_features=7, out_features=128, bias=True)
        (1): ReLU()
        (2): Linear(in_features=128, out_features=128, bias=True)
        (3): ReLU()
        (4): Linear(in_features=128, out_features=2048, bias=True)
        (5): ReLU()
        (6): View()
        (7): ConvTranspose2d(32, 32, kernel_size=(4, 4), stride=(2, 2), padding=(1, 1))
        (8): BatchNorm2d(32, eps=1e-05, momentum=0.1, affine=True, track_running_stats=True)
        (9): ReLU()
        (10): ConvTranspose2d(32, 32, kernel_size=(4, 4), stride=(2, 2), padding=(1, 1))
        (11): BatchNorm2d(32, eps=1e-05, momentum=0.1, affine=True, track_running_stats=True)
        (12): ReLU()
        (13): ConvTranspose2d(32, 32, kernel_size=(4, 4), stride=(2, 2), padding=(1, 1))
        (14): BatchNorm2d(32, eps=1e-05, momentum=0.1, affine=True, track_running_stats=True)
        (15): ReLU()
        (16): ConvTranspose2d(32, 1, kernel_size=(3, 3), stride=(1, 1), padding=(1, 1))
      )
    )
  )
  (encoder_y): DataParallel(
    (module): EncoderY(
      (encoder): ModuleList(
        (0): Sequential(
          (0): Linear(in_features=1, out_features=8, bias=True)
          (1): ReLU()
          (2): Linear(in_features=8, out_features=2, bias=True)
        )
        (1): Sequential(
          (0): Linear(in_features=1, out_features=8, bias=True)
          (1): ReLU()
          (2): Linear(in_features=8, out_features=2, bias=True)
        )
        (2): Sequential(
          (0): Linear(in_features=1, out_features=8, bias=True)
          (1): ReLU()
          (2): Linear(in_features=8, out_features=2, bias=True)
        )
      )
    )
  )
  (decoder_y): DataParallel(
    (module): DecoderY(
      (decoder): ModuleList(
        (0): Sequential(
          (0): Linear(in_features=1, out_features=8, bias=True)
          (1): ReLU()
          (2): Linear(in_features=8, out_features=1, bias=True)
          (3): Sigmoid()
        )
        (1): Sequential(
          (0): Linear(in_features=1, out_features=8, bias=True)
          (1): ReLU()
          (2): Linear(in_features=8, out_features=1, bias=True)
          (3): Sigmoid()
        )
        (2): Sequential(
          (0): Linear(in_features=1, out_features=8, bias=True)
          (1): ReLU()
          (2): Linear(in_features=8, out_features=1, bias=True)
          (3): Sigmoid()
        )
      )
    )
  )
)
2022-09-29 14:38:39 INFO Device=cuda:0, GPU Ids=[0]
2022-09-29 14:38:39 INFO Training on 737,280 number of data
2022-09-29 14:39:31 INFO epoch(1/100000) losses: x_recon(18.4674) y_recon(102.1072) y_recon2(218.0904) kl_div_z(0.1511) kl_div_w(35.4909) kl_div_w2(1.1046) 
2022-09-29 14:40:24 INFO epoch(2/100000) losses: x_recon(12.0548) y_recon(57.4203) y_recon2(201.3236) kl_div_z(0.0251) kl_div_w(38.1000) kl_div_w2(1.9658) 
…
